…
[INFO] Initializing Player Trajectory Generator Pytorch Model...
[INFO] Start Training
[INFO] Training Parameters: {'num_traj': 4, 'device': device(type='cuda'), 'n_steps': 10, 'dt': 0.2, 'state_dim': 4, 'input_dim': 2, 'pursuer_limits': [2, 2, 0.7, 0.7, 0.5, 0.5], 'evader_limits': [2, 2, 0.7, 0.7, 0.5, 0.5], 'catch_radius': 0.1, 'hidden_layer_num': 100, 'solver_args': {'max_iters': 1000, 'verbose': False, 'solve_method': 'ECOS'}, 'MSE_loss': MSELoss(), 'save_path': 'training/train_v3', 'enviroment': 'pentagon', 'margin': 0.1, 'bounds_type': 'hard', 'pursuer_model': Genarator_NN(
  (model): Sequential(
    (0): Linear(in_features=8, out_features=100, bias=True)
    (1): Tanh()
    (2): Linear(in_features=100, out_features=100, bias=True)
    (3): Tanh()
    (4): Linear(in_features=100, out_features=100, bias=True)
    (5): Tanh()
    (6): Linear(in_features=100, out_features=100, bias=True)
    (7): Tanh()
    (8): Linear(in_features=100, out_features=80, bias=True)
    (9): Tanh()
  )
), 'evader_model': Genarator_NN(
  (model): Sequential(
    (0): Linear(in_features=8, out_features=100, bias=True)
    (1): Tanh()
    (2): Linear(in_features=100, out_features=100, bias=True)
    (3): Tanh()
    (4): Linear(in_features=100, out_features=100, bias=True)
    (5): Tanh()
    (6): Linear(in_features=100, out_features=100, bias=True)
    (7): Tanh()
    (8): Linear(in_features=100, out_features=80, bias=True)
    (9): Tanh()
  )
)}
[INFO] Training Player Trajectory Generator Pytorch Model...
[INFO] Generating Initial States...
[INFO] Evader Init State Not in Pentagon. Trying Again...
[INFO] Evader Init State Not in Pentagon. Trying Again...
[INFO] Evader Init State Not in Pentagon. Trying Again...
[INFO] Evader Init State Not in Pentagon. Trying Again...
[INFO] Evader Init State Not in Pentagon. Trying Again...
…
